…
I0520 10:45:03.319293 26739 net.cpp:313] The NetState phase (0) differed from the phase (1) specified by a rule in layer y_accuracy
I0520 10:45:03.319314 26739 net.cpp:313] The NetState phase (0) differed from the phase (1) specified by a rule in layer rot_accuracy
I0520 10:45:03.319782 26739 net.cpp:49] Initializing net from parameters: 
name: "mnist_siamese_train_test"
state {
  phase: TRAIN
}
layer {
  name: "pair_data"
  type: "HDF5Data"
  top: "X"
  top: "rot"
  top: "x_trans"
  top: "y_trans"
  include {
    phase: TRAIN
  }
  hdf5_data_param {
    source: "/home/loula/Programming/cpp/tracking/mnist/model/train.txt"
    batch_size: 64
  }
}
layer {
  name: "slice_pair"
  type: "Slice"
  bottom: "X"
  top: "data"
  top: "data_p"
  slice_param {
    slice_dim: 1
    slice_point: 1
  }
}
layer {
  name: "conv1"
  type: "Convolution"
  bottom: "data"
  top: "conv1"
  param {
    name: "conv1_w"
    lr_mult: 1
  }
  param {
    name: "conv1_b"
    lr_mult: 2
  }
  convolution_param {
    num_output: 96
    kernel_size: 3
    stride: 1
    weight_filler {
      type: "xavier"
    }
    bias_filler {
      type: "constant"
    }
  }
}
layer {
  name: "relu1"
  type: "ReLU"
  bottom: "conv1"
  top: "conv1"
}
layer {
  name: "pool1"
  type: "Pooling"
  bottom: "conv1"
  top: "pool1"
  pooling_param {
    pool: MAX
    kernel_size: 2
    stride: 2
  }
}
layer {
  name: "norm1"
  type: "LRN"
  bottom: "pool1"
  top: "norm1"
  lrn_param {
    local_size: 5
    alpha: 0.0001
    beta: 0.75
  }
}
layer {
  name: "conv2"
  type: "Convolution"
  bottom: "norm1"
  top: "conv2"
  param {
    name: "conv2_w"
    lr_mult: 1
  }
  param {
    name: "conv2_b"
    lr_mult: 2
  }
  convolution_param {
    num_output: 256
    kernel_size: 3
    stride: 1
    weight_filler {
      type: "xavier"
    }
    bias_filler {
      type: "constant"
    }
  }
}
layer {
  name: "relu2"
  type: "ReLU"
  bottom: "conv2"
  top: "conv2"
}
layer {
  name: "pool2"
  type: "Pooling"
  bottom: "conv2"
  top: "pool2"
  pooling_param {
    pool: MAX
    kernel_size: 2
    stride: 2
  }
}
layer {
  name: "norm2"
  type: "LRN"
  bottom: "pool2"
  top: "norm2"
  lrn_param {
    local_size: 5
    alpha: 0.0001
    beta: 0.75
  }
}
layer {
  name: "conv1_p"
  type: "Convolution"
  bottom: "data_p"
  top: "conv1_p"
  param {
    name: "conv1_w"
    lr_mult: 1
  }
  param {
    name: "conv1_b"
    lr_mult: 2
  }
  convolution_param {
    num_output: 96
    kernel_size: 3
    stride: 1
    weight_filler {
      type: "xavier"
    }
    bias_filler {
      type: "constant"
    }
  }
}
layer {
  name: "relu1_p"
  type: "ReLU"
  bottom: "conv1_p"
  top: "conv1_p"
}
layer {
  name: "pool1_p"
  type: "Pooling"
  bottom: "conv1_p"
  top: "pool1_p"
  pooling_param {
    pool: MAX
    kernel_size: 2
    stride: 2
  }
}
layer {
  name: "norm1_p"
  type: "LRN"
  bottom: "pool1_p"
  top: "norm1_p"
  lrn_param {
    local_size: 5
    alpha: 0.0001
    beta: 0.75
  }
}
layer {
  name: "conv2_p"
  type: "Convolution"
  bottom: "norm1_p"
  top: "conv2_p"
  param {
    name: "conv2_w"
    lr_mult: 1
  }
  param {
    name: "conv2_b"
    lr_mult: 2
  }
  convolution_param {
    num_output: 256
    kernel_size: 3
    stride: 1
    weight_filler {
      type: "xavier"
    }
    bias_filler {
      type: "constant"
    }
  }
}
layer {
  name: "relu2_p"
  type: "ReLU"
  bottom: "conv2_p"
  top: "conv2_p"
}
layer {
  name: "pool2_p"
  type: "Pooling"
  bottom: "conv2_p"
  top: "pool2_p"
  pooling_param {
    pool: MAX
    kernel_size: 2
    stride: 2
  }
}
layer {
  name: "norm2_p"
  type: "LRN"
  bottom: "pool2_p"
  top: "norm2_p"
  lrn_param {
    local_size: 5
    alpha: 0.0001
    beta: 0.75
  }
}
layer {
  name: "concat"
  type: "Concat"
  bottom: "norm2"
  bottom: "norm2_p"
  top: "bcnn_out"
  concat_param {
    axis: 1
  }
}
layer {
  name: "ip1"
  type: "InnerProduct"
  bottom: "bcnn_out"
  top: "ip1"
  param {
    lr_mult: 1
  }
  param {
    lr_mult: 2
  }
  inner_product_param {
    num_output: 1000
    weight_filler {
      type: "xavier"
    }
    bias_filler {
      type: "constant"
    }
  }
}
layer {
  name: "relu3"
  type: "ReLU"
  bottom: "ip1"
  top: "ip1"
}
layer {
  name: "drop"
  type: "Dropout"
  bottom: "ip1"
  top: "ip1"
  dropout_param {
    dropout_ratio: 0.5
  }
}
layer {
  name: "ip_rot"
  type: "InnerProduct"
  bottom: "ip1"
  top: "ip_rot"
  param {
    lr_mult: 1
  }
  param {
    lr_mult: 2
  }
  inner_product_param {
    num_output: 41
    weight_filler {
      type: "xavier"
    }
    bias_filler {
      type: "constant"
    }
  }
}
layer {
  name: "ip_x"
  type: "InnerProduct"
  bottom: "ip1"
  top: "ip_x"
  param {
    lr_mult: 1
  }
  param {
    lr_mult: 2
  }
  inner_product_param {
    num_output: 13
    weight_filler {
      type: "xavier"
    }
    bias_filler {
      type: "constant"
    }
  }
}
layer {
  name: "ip_y"
  type: "InnerProduct"
  bottom: "ip1"
  top: "ip_y"
  param {
    lr_mult: 1
  }
  param {
    lr_mult: 2
  }
  inner_product_param {
    num_output: 13
    weight_filler {
      type: "xavier"
    }
    bias_filler {
      type: "constant"
    }
  }
}
layer {
  name: "x_loss"
  type: "SoftmaxWithLoss"
  bottom: "ip_x"
  bottom: "x_trans"
  top: "x_loss"
  loss_weight: 1
}
layer {
  name: "y_loss"
  type: "SoftmaxWithLoss"
  bottom: "ip_y"
  bottom: "y_trans"
  top: "y_loss"
  loss_weight: 1
}
layer {
  name: "rot_loss"
  type: "SoftmaxWithLoss"
  bottom: "ip_rot"
  bottom: "rot"
  top: "rot_loss"
  loss_weight: 1
}
I0520 10:45:03.320164 26739 layer_factory.hpp:77] Creating layer pair_data
I0520 10:45:03.320202 26739 net.cpp:91] Creating Layer pair_data
I0520 10:45:03.320230 26739 net.cpp:399] pair_data -> X
I0520 10:45:03.320291 26739 net.cpp:399] pair_data -> rot
I0520 10:45:03.320332 26739 net.cpp:399] pair_data -> x_trans
I0520 10:45:03.320361 26739 net.cpp:399] pair_data -> y_trans
I0520 10:45:03.320389 26739 hdf5_data_layer.cpp:79] Loading list of HDF5 filenames from: /home/loula/Programming/cpp/tracking/mnist/model/train.txt
I0520 10:45:03.320507 26739 hdf5_data_layer.cpp:93] Number of HDF5 files: 90
I0520 10:45:03.322598 26739 hdf5.cpp:32] Datatype class: H5T_FLOAT
I0520 10:45:03.864207 26739 net.cpp:141] Setting up pair_data
I0520 10:45:03.864249 26739 net.cpp:148] Top shape: 64 2 28 28 (100352)
I0520 10:45:03.864256 26739 net.cpp:148] Top shape: 64 (64)
I0520 10:45:03.864260 26739 net.cpp:148] Top shape: 64 (64)
I0520 10:45:03.864264 26739 net.cpp:148] Top shape: 64 (64)
I0520 10:45:03.864267 26739 net.cpp:156] Memory required for data: 402176
I0520 10:45:03.864275 26739 layer_factory.hpp:77] Creating layer slice_pair
I0520 10:45:03.864296 26739 net.cpp:91] Creating Layer slice_pair
I0520 10:45:03.864305 26739 net.cpp:425] slice_pair <- X
I0520 10:45:03.864326 26739 net.cpp:399] slice_pair -> data
I0520 10:45:03.864341 26739 net.cpp:399] slice_pair -> data_p
I0520 10:45:03.864354 26739 net.cpp:141] Setting up slice_pair
I0520 10:45:03.864363 26739 net.cpp:148] Top shape: 64 1 28 28 (50176)
I0520 10:45:03.864370 26739 net.cpp:148] Top shape: 64 1 28 28 (50176)
I0520 10:45:03.864375 26739 net.cpp:156] Memory required for data: 803584
I0520 10:45:03.864382 26739 layer_factory.hpp:77] Creating layer conv1
I0520 10:45:03.864405 26739 net.cpp:91] Creating Layer conv1
I0520 10:45:03.864413 26739 net.cpp:425] conv1 <- data
I0520 10:45:03.864423 26739 net.cpp:399] conv1 -> conv1
I0520 10:45:03.864722 26739 net.cpp:141] Setting up conv1
I0520 10:45:03.864732 26739 net.cpp:148] Top shape: 64 96 26 26 (4153344)
I0520 10:45:03.864745 26739 net.cpp:156] Memory required for data: 17416960
I0520 10:45:03.864769 26739 layer_factory.hpp:77] Creating layer relu1
I0520 10:45:03.864779 26739 net.cpp:91] Creating Layer relu1
I0520 10:45:03.864787 26739 net.cpp:425] relu1 <- conv1
I0520 10:45:03.864799 26739 net.cpp:386] relu1 -> conv1 (in-place)
I0520 10:45:03.864811 26739 net.cpp:141] Setting up relu1
I0520 10:45:03.864822 26739 net.cpp:148] Top shape: 64 96 26 26 (4153344)
I0520 10:45:03.864827 26739 net.cpp:156] Memory required for data: 34030336
I0520 10:45:03.864832 26739 layer_factory.hpp:77] Creating layer pool1
I0520 10:45:03.864845 26739 net.cpp:91] Creating Layer pool1
I0520 10:45:03.864851 26739 net.cpp:425] pool1 <- conv1
I0520 10:45:03.864859 26739 net.cpp:399] pool1 -> pool1
I0520 10:45:03.864881 26739 net.cpp:141] Setting up pool1
I0520 10:45:03.864888 26739 net.cpp:148] Top shape: 64 96 13 13 (1038336)
I0520 10:45:03.864893 26739 net.cpp:156] Memory required for data: 38183680
I0520 10:45:03.864898 26739 layer_factory.hpp:77] Creating layer norm1
I0520 10:45:03.864912 26739 net.cpp:91] Creating Layer norm1
I0520 10:45:03.864918 26739 net.cpp:425] norm1 <- pool1
I0520 10:45:03.864926 26739 net.cpp:399] norm1 -> norm1
I0520 10:45:03.864943 26739 net.cpp:141] Setting up norm1
I0520 10:45:03.864953 26739 net.cpp:148] Top shape: 64 96 13 13 (1038336)
I0520 10:45:03.864956 26739 net.cpp:156] Memory required for data: 42337024
I0520 10:45:03.864961 26739 layer_factory.hpp:77] Creating layer conv2
I0520 10:45:03.864976 26739 net.cpp:91] Creating Layer conv2
I0520 10:45:03.864982 26739 net.cpp:425] conv2 <- norm1
I0520 10:45:03.864995 26739 net.cpp:399] conv2 -> conv2
I0520 10:45:03.866236 26739 net.cpp:141] Setting up conv2
I0520 10:45:03.866245 26739 net.cpp:148] Top shape: 64 256 11 11 (1982464)
I0520 10:45:03.866251 26739 net.cpp:156] Memory required for data: 50266880
I0520 10:45:03.866261 26739 layer_factory.hpp:77] Creating layer relu2
I0520 10:45:03.866271 26739 net.cpp:91] Creating Layer relu2
I0520 10:45:03.866276 26739 net.cpp:425] relu2 <- conv2
I0520 10:45:03.866286 26739 net.cpp:386] relu2 -> conv2 (in-place)
I0520 10:45:03.866297 26739 net.cpp:141] Setting up relu2
I0520 10:45:03.866305 26739 net.cpp:148] Top shape: 64 256 11 11 (1982464)
I0520 10:45:03.866312 26739 net.cpp:156] Memory required for data: 58196736
I0520 10:45:03.866317 26739 layer_factory.hpp:77] Creating layer pool2
I0520 10:45:03.866338 26739 net.cpp:91] Creating Layer pool2
I0520 10:45:03.866348 26739 net.cpp:425] pool2 <- conv2
I0520 10:45:03.866356 26739 net.cpp:399] pool2 -> pool2
I0520 10:45:03.866371 26739 net.cpp:141] Setting up pool2
I0520 10:45:03.866379 26739 net.cpp:148] Top shape: 64 256 6 6 (589824)
I0520 10:45:03.866384 26739 net.cpp:156] Memory required for data: 60556032
I0520 10:45:03.866389 26739 layer_factory.hpp:77] Creating layer norm2
I0520 10:45:03.866402 26739 net.cpp:91] Creating Layer norm2
I0520 10:45:03.866408 26739 net.cpp:425] norm2 <- pool2
I0520 10:45:03.866416 26739 net.cpp:399] norm2 -> norm2
I0520 10:45:03.866428 26739 net.cpp:141] Setting up norm2
I0520 10:45:03.866437 26739 net.cpp:148] Top shape: 64 256 6 6 (589824)
I0520 10:45:03.866444 26739 net.cpp:156] Memory required for data: 62915328
I0520 10:45:03.866451 26739 layer_factory.hpp:77] Creating layer conv1_p
I0520 10:45:03.866462 26739 net.cpp:91] Creating Layer conv1_p
I0520 10:45:03.866468 26739 net.cpp:425] conv1_p <- data_p
I0520 10:45:03.866479 26739 net.cpp:399] conv1_p -> conv1_p
I0520 10:45:03.866508 26739 net.cpp:141] Setting up conv1_p
I0520 10:45:03.866516 26739 net.cpp:148] Top shape: 64 96 26 26 (4153344)
I0520 10:45:03.866521 26739 net.cpp:156] Memory required for data: 79528704
I0520 10:45:03.866528 26739 net.cpp:484] Sharing parameters 'conv1_w' owned by layer 'conv1', param index 0
I0520 10:45:03.866536 26739 net.cpp:484] Sharing parameters 'conv1_b' owned by layer 'conv1', param index 1
I0520 10:45:03.866544 26739 layer_factory.hpp:77] Creating layer relu1_p
I0520 10:45:03.866552 26739 net.cpp:91] Creating Layer relu1_p
I0520 10:45:03.866564 26739 net.cpp:425] relu1_p <- conv1_p
I0520 10:45:03.866575 26739 net.cpp:386] relu1_p -> conv1_p (in-place)
I0520 10:45:03.866585 26739 net.cpp:141] Setting up relu1_p
I0520 10:45:03.866593 26739 net.cpp:148] Top shape: 64 96 26 26 (4153344)
I0520 10:45:03.866597 26739 net.cpp:156] Memory required for data: 96142080
I0520 10:45:03.866603 26739 layer_factory.hpp:77] Creating layer pool1_p
I0520 10:45:03.866612 26739 net.cpp:91] Creating Layer pool1_p
I0520 10:45:03.866618 26739 net.cpp:425] pool1_p <- conv1_p
I0520 10:45:03.866627 26739 net.cpp:399] pool1_p -> pool1_p
I0520 10:45:03.866641 26739 net.cpp:141] Setting up pool1_p
I0520 10:45:03.866648 26739 net.cpp:148] Top shape: 64 96 13 13 (1038336)
I0520 10:45:03.866654 26739 net.cpp:156] Memory required for data: 100295424
I0520 10:45:03.866660 26739 layer_factory.hpp:77] Creating layer norm1_p
I0520 10:45:03.866668 26739 net.cpp:91] Creating Layer norm1_p
I0520 10:45:03.866674 26739 net.cpp:425] norm1_p <- pool1_p
I0520 10:45:03.866684 26739 net.cpp:399] norm1_p -> norm1_p
I0520 10:45:03.866696 26739 net.cpp:141] Setting up norm1_p
I0520 10:45:03.866704 26739 net.cpp:148] Top shape: 64 96 13 13 (1038336)
I0520 10:45:03.866708 26739 net.cpp:156] Memory required for data: 104448768
I0520 10:45:03.866714 26739 layer_factory.hpp:77] Creating layer conv2_p
I0520 10:45:03.866725 26739 net.cpp:91] Creating Layer conv2_p
I0520 10:45:03.866731 26739 net.cpp:425] conv2_p <- norm1_p
I0520 10:45:03.866742 26739 net.cpp:399] conv2_p -> conv2_p
I0520 10:45:03.867983 26739 net.cpp:141] Setting up conv2_p
I0520 10:45:03.867992 26739 net.cpp:148] Top shape: 64 256 11 11 (1982464)
I0520 10:45:03.867997 26739 net.cpp:156] Memory required for data: 112378624
I0520 10:45:03.868003 26739 net.cpp:484] Sharing parameters 'conv2_w' owned by layer 'conv2', param index 0
I0520 10:45:03.868011 26739 net.cpp:484] Sharing parameters 'conv2_b' owned by layer 'conv2', param index 1
I0520 10:45:03.868019 26739 layer_factory.hpp:77] Creating layer relu2_p
I0520 10:45:03.868028 26739 net.cpp:91] Creating Layer relu2_p
I0520 10:45:03.868036 26739 net.cpp:425] relu2_p <- conv2_p
I0520 10:45:03.868042 26739 net.cpp:386] relu2_p -> conv2_p (in-place)
I0520 10:45:03.868052 26739 net.cpp:141] Setting up relu2_p
I0520 10:45:03.868062 26739 net.cpp:148] Top shape: 64 256 11 11 (1982464)
I0520 10:45:03.868067 26739 net.cpp:156] Memory required for data: 120308480
I0520 10:45:03.868072 26739 layer_factory.hpp:77] Creating layer pool2_p
I0520 10:45:03.868083 26739 net.cpp:91] Creating Layer pool2_p
I0520 10:45:03.868089 26739 net.cpp:425] pool2_p <- conv2_p
I0520 10:45:03.868098 26739 net.cpp:399] pool2_p -> pool2_p
I0520 10:45:03.868111 26739 net.cpp:141] Setting up pool2_p
I0520 10:45:03.868119 26739 net.cpp:148] Top shape: 64 256 6 6 (589824)
I0520 10:45:03.868126 26739 net.cpp:156] Memory required for data: 122667776
I0520 10:45:03.868131 26739 layer_factory.hpp:77] Creating layer norm2_p
I0520 10:45:03.868142 26739 net.cpp:91] Creating Layer norm2_p
I0520 10:45:03.868149 26739 net.cpp:425] norm2_p <- pool2_p
I0520 10:45:03.868156 26739 net.cpp:399] norm2_p -> norm2_p
I0520 10:45:03.868168 26739 net.cpp:141] Setting up norm2_p
I0520 10:45:03.868176 26739 net.cpp:148] Top shape: 64 256 6 6 (589824)
I0520 10:45:03.868183 26739 net.cpp:156] Memory required for data: 125027072
I0520 10:45:03.868188 26739 layer_factory.hpp:77] Creating layer concat
I0520 10:45:03.868197 26739 net.cpp:91] Creating Layer concat
I0520 10:45:03.868203 26739 net.cpp:425] concat <- norm2
I0520 10:45:03.868211 26739 net.cpp:425] concat <- norm2_p
I0520 10:45:03.868221 26739 net.cpp:399] concat -> bcnn_out
I0520 10:45:03.868235 26739 net.cpp:141] Setting up concat
I0520 10:45:03.868243 26739 net.cpp:148] Top shape: 64 512 6 6 (1179648)
I0520 10:45:03.868248 26739 net.cpp:156] Memory required for data: 129745664
I0520 10:45:03.868253 26739 layer_factory.hpp:77] Creating layer ip1
I0520 10:45:03.868265 26739 net.cpp:91] Creating Layer ip1
I0520 10:45:03.868271 26739 net.cpp:425] ip1 <- bcnn_out
I0520 10:45:03.868288 26739 net.cpp:399] ip1 -> ip1
I0520 10:45:03.974792 26739 net.cpp:141] Setting up ip1
I0520 10:45:03.974827 26739 net.cpp:148] Top shape: 64 1000 (64000)
I0520 10:45:03.974833 26739 net.cpp:156] Memory required for data: 130001664
I0520 10:45:03.974894 26739 layer_factory.hpp:77] Creating layer relu3
I0520 10:45:03.974913 26739 net.cpp:91] Creating Layer relu3
I0520 10:45:03.974926 26739 net.cpp:425] relu3 <- ip1
I0520 10:45:03.974938 26739 net.cpp:386] relu3 -> ip1 (in-place)
I0520 10:45:03.974956 26739 net.cpp:141] Setting up relu3
I0520 10:45:03.974966 26739 net.cpp:148] Top shape: 64 1000 (64000)
I0520 10:45:03.974970 26739 net.cpp:156] Memory required for data: 130257664
I0520 10:45:03.974975 26739 layer_factory.hpp:77] Creating layer drop
I0520 10:45:03.974987 26739 net.cpp:91] Creating Layer drop
I0520 10:45:03.974993 26739 net.cpp:425] drop <- ip1
I0520 10:45:03.975002 26739 net.cpp:386] drop -> ip1 (in-place)
I0520 10:45:03.975016 26739 net.cpp:141] Setting up drop
I0520 10:45:03.975024 26739 net.cpp:148] Top shape: 64 1000 (64000)
I0520 10:45:03.975028 26739 net.cpp:156] Memory required for data: 130513664
I0520 10:45:03.975034 26739 layer_factory.hpp:77] Creating layer ip1_drop_0_split
I0520 10:45:03.975044 26739 net.cpp:91] Creating Layer ip1_drop_0_split
I0520 10:45:03.975055 26739 net.cpp:425] ip1_drop_0_split <- ip1
I0520 10:45:03.975067 26739 net.cpp:399] ip1_drop_0_split -> ip1_drop_0_split_0
I0520 10:45:03.975080 26739 net.cpp:399] ip1_drop_0_split -> ip1_drop_0_split_1
I0520 10:45:03.975091 26739 net.cpp:399] ip1_drop_0_split -> ip1_drop_0_split_2
I0520 10:45:03.975106 26739 net.cpp:141] Setting up ip1_drop_0_split
I0520 10:45:03.975113 26739 net.cpp:148] Top shape: 64 1000 (64000)
I0520 10:45:03.975119 26739 net.cpp:148] Top shape: 64 1000 (64000)
I0520 10:45:03.975127 26739 net.cpp:148] Top shape: 64 1000 (64000)
I0520 10:45:03.975131 26739 net.cpp:156] Memory required for data: 131281664
I0520 10:45:03.975137 26739 layer_factory.hpp:77] Creating layer ip_rot
I0520 10:45:03.975150 26739 net.cpp:91] Creating Layer ip_rot
I0520 10:45:03.975155 26739 net.cpp:425] ip_rot <- ip1_drop_0_split_0
I0520 10:45:03.975167 26739 net.cpp:399] ip_rot -> ip_rot
I0520 10:45:03.975421 26739 net.cpp:141] Setting up ip_rot
I0520 10:45:03.975432 26739 net.cpp:148] Top shape: 64 41 (2624)
I0520 10:45:03.975440 26739 net.cpp:156] Memory required for data: 131292160
I0520 10:45:03.975450 26739 layer_factory.hpp:77] Creating layer ip_x
I0520 10:45:03.975460 26739 net.cpp:91] Creating Layer ip_x
I0520 10:45:03.975466 26739 net.cpp:425] ip_x <- ip1_drop_0_split_1
I0520 10:45:03.975478 26739 net.cpp:399] ip_x -> ip_x
I0520 10:45:03.975570 26739 net.cpp:141] Setting up ip_x
I0520 10:45:03.975579 26739 net.cpp:148] Top shape: 64 13 (832)
I0520 10:45:03.975584 26739 net.cpp:156] Memory required for data: 131295488
I0520 10:45:03.975594 26739 layer_factory.hpp:77] Creating layer ip_y
I0520 10:45:03.975605 26739 net.cpp:91] Creating Layer ip_y
I0520 10:45:03.975612 26739 net.cpp:425] ip_y <- ip1_drop_0_split_2
I0520 10:45:03.975621 26739 net.cpp:399] ip_y -> ip_y
I0520 10:45:03.975715 26739 net.cpp:141] Setting up ip_y
I0520 10:45:03.975723 26739 net.cpp:148] Top shape: 64 13 (832)
I0520 10:45:03.975728 26739 net.cpp:156] Memory required for data: 131298816
I0520 10:45:03.975738 26739 layer_factory.hpp:77] Creating layer x_loss
I0520 10:45:03.975749 26739 net.cpp:91] Creating Layer x_loss
I0520 10:45:03.975756 26739 net.cpp:425] x_loss <- ip_x
I0520 10:45:03.975764 26739 net.cpp:425] x_loss <- x_trans
I0520 10:45:03.975774 26739 net.cpp:399] x_loss -> x_loss
I0520 10:45:03.975787 26739 layer_factory.hpp:77] Creating layer x_loss
…
I0520 10:45:03.976665 26739 solver.cpp:181] Creating test net (#0) specified by net file: mnist_siamese_train_test.prototxt
I0520 10:45:03.976708 26739 net.cpp:313] The NetState phase (1) differed from the phase (0) specified by a rule in layer pair_data
I0520 10:45:03.976897 26739 net.cpp:49] Initializing net from parameters: 
name: "mnist_siamese_train_test"
state {
  phase: TEST
}
layer {
  name: "pair_data"
  type: "HDF5Data"
  top: "X"
  top: "rot"
  top: "x_trans"
  top: "y_trans"
  include {
    phase: TEST
  }
  hdf5_data_param {
    source: "/home/loula/Programming/cpp/tracking/mnist/model/test.txt"
    batch_size: 100
  }
}
layer {
  name: "slice_pair"
  type: "Slice"
  bottom: "X"
  top: "data"
  top: "data_p"
  slice_param {
    slice_dim: 1
    slice_point: 1
  }
}
layer {
  name: "conv1"
  type: "Convolution"
  bottom: "data"
  top: "conv1"
  param {
    name: "conv1_w"
    lr_mult: 1
  }
  param {
    name: "conv1_b"
    lr_mult: 2
  }
  convolution_param {
    num_output: 96
    kernel_size: 3
    stride: 1
    weight_filler {
      type: "xavier"
    }
    bias_filler {
      type: "constant"
    }
  }
}
layer {
  name: "relu1"
  type: "ReLU"
  bottom: "conv1"
  top: "conv1"
}
layer {
  name: "pool1"
  type: "Pooling"
  bottom: "conv1"
  top: "pool1"
  pooling_param {
    pool: MAX
    kernel_size: 2
    stride: 2
  }
}
layer {
  name: "norm1"
  type: "LRN"
  bottom: "pool1"
  top: "norm1"
  lrn_param {
    local_size: 5
    alpha: 0.0001
    beta: 0.75
  }
}
layer {
  name: "conv2"
  type: "Convolution"
  bottom: "norm1"
  top: "conv2"
  param {
    name: "conv2_w"
    lr_mult: 1
  }
  param {
    name: "conv2_b"
    lr_mult: 2
  }
  convolution_param {
    num_output: 256
    kernel_size: 3
    stride: 1
    weight_filler {
      type: "xavier"
    }
    bias_filler {
      type: "constant"
    }
  }
}
layer {
  name: "relu2"
  type: "ReLU"
  bottom: "conv2"
  top: "conv2"
}
layer {
  name: "pool2"
  type: "Pooling"
  bottom: "conv2"
  top: "pool2"
  pooling_param {
    pool: MAX
    kernel_size: 2
    stride: 2
  }
}
layer {
  name: "norm2"
  type: "LRN"
  bottom: "pool2"
  top: "norm2"
  lrn_param {
    local_size: 5
    alpha: 0.0001
    beta: 0.75
  }
}
layer {
  name: "conv1_p"
  type: "Convolution"
  bottom: "data_p"
  top: "conv1_p"
  param {
    name: "conv1_w"
    lr_mult: 1
  }
  param {
    name: "conv1_b"
    lr_mult: 2
  }
  convolution_param {
    num_output: 96
    kernel_size: 3
    stride: 1
    weight_filler {
      type: "xavier"
    }
    bias_filler {
      type: "constant"
    }
  }
}
layer {
  name: "relu1_p"
  type: "ReLU"
  bottom: "conv1_p"
  top: "conv1_p"
}
layer {
  name: "pool1_p"
  type: "Pooling"
  bottom: "conv1_p"
  top: "pool1_p"
  pooling_param {
    pool: MAX
    kernel_size: 2
    stride: 2
  }
}
layer {
  name: "norm1_p"
  type: "LRN"
  bottom: "pool1_p"
  top: "norm1_p"
  lrn_param {
    local_size: 5
    alpha: 0.0001
    beta: 0.75
  }
}
layer {
  name: "conv2_p"
  type: "Convolution"
  bottom: "norm1_p"
  top: "conv2_p"
  param {
    name: "conv2_w"
    lr_mult: 1
  }
  param {
    name: "conv2_b"
    lr_mult: 2
  }
  convolution_param {
    num_output: 256
    kernel_size: 3
    stride: 1
    weight_filler {
      type: "xavier"
    }
    bias_filler {
      type: "constant"
    }
  }
}
layer {
  name: "relu2_p"
  type: "ReLU"
  bottom: "conv2_p"
  top: "conv2_p"
}
layer {
  name: "pool2_p"
  type: "Pooling"
  bottom: "conv2_p"
  top: "pool2_p"
  pooling_param {
    pool: MAX
    kernel_size: 2
    stride: 2
  }
}
layer {
  name: "norm2_p"
  type: "LRN"
  bottom: "pool2_p"
  top: "norm2_p"
  lrn_param {
    local_size: 5
    alpha: 0.0001
    beta: 0.75
  }
}
layer {
  name: "concat"
  type: "Concat"
  bottom: "norm2"
  bottom: "norm2_p"
  top: "bcnn_out"
  concat_param {
    axis: 1
  }
}
layer {
  name: "ip1"
  type: "InnerProduct"
  bottom: "bcnn_out"
  top: "ip1"
  param {
    lr_mult: 1
  }
  param {
    lr_mult: 2
  }
  inner_product_param {
    num_output: 1000
    weight_filler {
      type: "xavier"
    }
    bias_filler {
      type: "constant"
    }
  }
}
layer {
  name: "relu3"
  type: "ReLU"
  bottom: "ip1"
  top: "ip1"
}
layer {
  name: "drop"
  type: "Dropout"
  bottom: "ip1"
  top: "ip1"
  dropout_param {
    dropout_ratio: 0.5
  }
}
layer {
  name: "ip_rot"
  type: "InnerProduct"
  bottom: "ip1"
  top: "ip_rot"
  param {
    lr_mult: 1
  }
  param {
    lr_mult: 2
  }
  inner_product_param {
    num_output: 41
    weight_filler {
      type: "xavier"
    }
    bias_filler {
      type: "constant"
    }
  }
}
layer {
  name: "ip_x"
  type: "InnerProduct"
  bottom: "ip1"
  top: "ip_x"
  param {
    lr_mult: 1
  }
  param {
    lr_mult: 2
  }
  inner_product_param {
    num_output: 13
    weight_filler {
      type: "xavier"
    }
    bias_filler {
      type: "constant"
    }
  }
}
layer {
  name: "ip_y"
  type: "InnerProduct"
  bottom: "ip1"
  top: "ip_y"
  param {
    lr_mult: 1
  }
  param {
    lr_mult: 2
  }
  inner_product_param {
    num_output: 13
    weight_filler {
      type: "xavier"
    }
    bias_filler {
      type: "constant"
    }
  }
}
layer {
  name: "x_loss"
  type: "SoftmaxWithLoss"
  bottom: "ip_x"
  bottom: "x_trans"
  top: "x_loss"
  loss_weight: 1
}
layer {
  name: "y_loss"
  type: "SoftmaxWithLoss"
  bottom: "ip_y"
  bottom: "y_trans"
  top: "y_loss"
  loss_weight: 1
}
layer {
  name: "rot_loss"
  type: "SoftmaxWithLoss"
  bottom: "ip_rot"
  bottom: "rot"
  top: "rot_loss"
  loss_weight: 1
}
layer {
  name: "x_accuracy"
  type: "Accuracy"
  bottom: "ip_x"
  bottom: "x_trans"
  top: "x_accuracy"
  include {
    phase: TEST
  }
}
layer {
  name: "y_accuracy"
  type: "Accuracy"
  bottom: "ip_y"
  bottom: "y_trans"
  top: "y_accuracy"
  include {
    phase: TEST
  }
}
layer {
  name: "rot_accuracy"
  type: "Accuracy"
  bottom: "ip_rot"
  bottom: "rot"
  top: "rot_accuracy"
  include {
    phase: TEST
  }
}
I0520 10:45:03.977092 26739 layer_factory.hpp:77] Creating layer pair_data
I0520 10:45:03.977104 26739 net.cpp:91] Creating Layer pair_data
I0520 10:45:03.977111 26739 net.cpp:399] pair_data -> X
I0520 10:45:03.977124 26739 net.cpp:399] pair_data -> rot
I0520 10:45:03.977136 26739 net.cpp:399] pair_data -> x_trans
I0520 10:45:03.977149 26739 net.cpp:399] pair_data -> y_trans
I0520 10:45:03.977161 26739 hdf5_data_layer.cpp:79] Loading list of HDF5 filenames from: /home/loula/Programming/cpp/tracking/mnist/model/test.txt
I0520 10:45:03.977190 26739 hdf5_data_layer.cpp:93] Number of HDF5 files: 10
I0520 10:45:04.198421 26739 net.cpp:141] Setting up pair_data
I0520 10:45:04.198457 26739 net.cpp:148] Top shape: 100 2 28 28 (156800)
I0520 10:45:04.198467 26739 net.cpp:148] Top shape: 100 (100)
I0520 10:45:04.198475 26739 net.cpp:148] Top shape: 100 (100)
I0520 10:45:04.198482 26739 net.cpp:148] Top shape: 100 (100)
I0520 10:45:04.198487 26739 net.cpp:156] Memory required for data: 628400
I0520 10:45:04.198498 26739 layer_factory.hpp:77] Creating layer rot_pair_data_1_split
I0520 10:45:04.198515 26739 net.cpp:91] Creating Layer rot_pair_data_1_split
I0520 10:45:04.198528 26739 net.cpp:425] rot_pair_data_1_split <- rot
I0520 10:45:04.198540 26739 net.cpp:399] rot_pair_data_1_split -> rot_pair_data_1_split_0
I0520 10:45:04.198560 26739 net.cpp:399] rot_pair_data_1_split -> rot_pair_data_1_split_1
I0520 10:45:04.198576 26739 net.cpp:141] Setting up rot_pair_data_1_split
I0520 10:45:04.198586 26739 net.cpp:148] Top shape: 100 (100)
I0520 10:45:04.198593 26739 net.cpp:148] Top shape: 100 (100)
I0520 10:45:04.198601 26739 net.cpp:156] Memory required for data: 629200
I0520 10:45:04.198606 26739 layer_factory.hpp:77] Creating layer x_trans_pair_data_2_split
I0520 10:45:04.198616 26739 net.cpp:91] Creating Layer x_trans_pair_data_2_split
I0520 10:45:04.198623 26739 net.cpp:425] x_trans_pair_data_2_split <- x_trans
I0520 10:45:04.198632 26739 net.cpp:399] x_trans_pair_data_2_split -> x_trans_pair_data_2_split_0
I0520 10:45:04.198642 26739 net.cpp:399] x_trans_pair_data_2_split -> x_trans_pair_data_2_split_1
I0520 10:45:04.198655 26739 net.cpp:141] Setting up x_trans_pair_data_2_split
I0520 10:45:04.198662 26739 net.cpp:148] Top shape: 100 (100)
I0520 10:45:04.198669 26739 net.cpp:148] Top shape: 100 (100)
I0520 10:45:04.198674 26739 net.cpp:156] Memory required for data: 630000
I0520 10:45:04.198679 26739 layer_factory.hpp:77] Creating layer y_trans_pair_data_3_split
I0520 10:45:04.198688 26739 net.cpp:91] Creating Layer y_trans_pair_data_3_split
I0520 10:45:04.198694 26739 net.cpp:425] y_trans_pair_data_3_split <- y_trans
I0520 10:45:04.198703 26739 net.cpp:399] y_trans_pair_data_3_split -> y_trans_pair_data_3_split_0
I0520 10:45:04.198725 26739 net.cpp:399] y_trans_pair_data_3_split -> y_trans_pair_data_3_split_1
I0520 10:45:04.198737 26739 net.cpp:141] Setting up y_trans_pair_data_3_split
I0520 10:45:04.198746 26739 net.cpp:148] Top shape: 100 (100)
I0520 10:45:04.198753 26739 net.cpp:148] Top shape: 100 (100)
I0520 10:45:04.198760 26739 net.cpp:156] Memory required for data: 630800
I0520 10:45:04.198765 26739 layer_factory.hpp:77] Creating layer slice_pair
I0520 10:45:04.198776 26739 net.cpp:91] Creating Layer slice_pair
I0520 10:45:04.198781 26739 net.cpp:425] slice_pair <- X
I0520 10:45:04.198789 26739 net.cpp:399] slice_pair -> data
I0520 10:45:04.198801 26739 net.cpp:399] slice_pair -> data_p
I0520 10:45:04.198814 26739 net.cpp:141] Setting up slice_pair
I0520 10:45:04.198822 26739 net.cpp:148] Top shape: 100 1 28 28 (78400)
I0520 10:45:04.198830 26739 net.cpp:148] Top shape: 100 1 28 28 (78400)
I0520 10:45:04.198837 26739 net.cpp:156] Memory required for data: 1258000
I0520 10:45:04.198843 26739 layer_factory.hpp:77] Creating layer conv1
I0520 10:45:04.198858 26739 net.cpp:91] Creating Layer conv1
I0520 10:45:04.198863 26739 net.cpp:425] conv1 <- data
I0520 10:45:04.198873 26739 net.cpp:399] conv1 -> conv1
I0520 10:45:04.198909 26739 net.cpp:141] Setting up conv1
I0520 10:45:04.198916 26739 net.cpp:148] Top shape: 100 96 26 26 (6489600)
I0520 10:45:04.198921 26739 net.cpp:156] Memory required for data: 27216400
I0520 10:45:04.198935 26739 layer_factory.hpp:77] Creating layer relu1
I0520 10:45:04.198943 26739 net.cpp:91] Creating Layer relu1
I0520 10:45:04.198950 26739 net.cpp:425] relu1 <- conv1
I0520 10:45:04.198957 26739 net.cpp:386] relu1 -> conv1 (in-place)
I0520 10:45:04.198967 26739 net.cpp:141] Setting up relu1
I0520 10:45:04.198976 26739 net.cpp:148] Top shape: 100 96 26 26 (6489600)
I0520 10:45:04.198982 26739 net.cpp:156] Memory required for data: 53174800
I0520 10:45:04.198987 26739 layer_factory.hpp:77] Creating layer pool1
I0520 10:45:04.198995 26739 net.cpp:91] Creating Layer pool1
I0520 10:45:04.199002 26739 net.cpp:425] pool1 <- conv1
I0520 10:45:04.199009 26739 net.cpp:399] pool1 -> pool1
I0520 10:45:04.199025 26739 net.cpp:141] Setting up pool1
I0520 10:45:04.199033 26739 net.cpp:148] Top shape: 100 96 13 13 (1622400)
I0520 10:45:04.199039 26739 net.cpp:156] Memory required for data: 59664400
I0520 10:45:04.199044 26739 layer_factory.hpp:77] Creating layer norm1
I0520 10:45:04.199055 26739 net.cpp:91] Creating Layer norm1
I0520 10:45:04.199060 26739 net.cpp:425] norm1 <- pool1
I0520 10:45:04.199069 26739 net.cpp:399] norm1 -> norm1
I0520 10:45:04.199081 26739 net.cpp:141] Setting up norm1
I0520 10:45:04.199090 26739 net.cpp:148] Top shape: 100 96 13 13 (1622400)
I0520 10:45:04.199093 26739 net.cpp:156] Memory required for data: 66154000
I0520 10:45:04.199100 26739 layer_factory.hpp:77] Creating layer conv2
I0520 10:45:04.199112 26739 net.cpp:91] Creating Layer conv2
I0520 10:45:04.199117 26739 net.cpp:425] conv2 <- norm1
I0520 10:45:04.199126 26739 net.cpp:399] conv2 -> conv2
I0520 10:45:04.200373 26739 net.cpp:141] Setting up conv2
I0520 10:45:04.200384 26739 net.cpp:148] Top shape: 100 256 11 11 (3097600)
I0520 10:45:04.200389 26739 net.cpp:156] Memory required for data: 78544400
I0520 10:45:04.200399 26739 layer_factory.hpp:77] Creating layer relu2
I0520 10:45:04.200409 26739 net.cpp:91] Creating Layer relu2
I0520 10:45:04.200417 26739 net.cpp:425] relu2 <- conv2
I0520 10:45:04.200424 26739 net.cpp:386] relu2 -> conv2 (in-place)
I0520 10:45:04.200434 26739 net.cpp:141] Setting up relu2
I0520 10:45:04.200443 26739 net.cpp:148] Top shape: 100 256 11 11 (3097600)
I0520 10:45:04.200448 26739 net.cpp:156] Memory required for data: 90934800
I0520 10:45:04.200454 26739 layer_factory.hpp:77] Creating layer pool2
I0520 10:45:04.200464 26739 net.cpp:91] Creating Layer pool2
I0520 10:45:04.200469 26739 net.cpp:425] pool2 <- conv2
I0520 10:45:04.200476 26739 net.cpp:399] pool2 -> pool2
I0520 10:45:04.200491 26739 net.cpp:141] Setting up pool2
I0520 10:45:04.200506 26739 net.cpp:148] Top shape: 100 256 6 6 (921600)
I0520 10:45:04.200511 26739 net.cpp:156] Memory required for data: 94621200
I0520 10:45:04.200517 26739 layer_factory.hpp:77] Creating layer norm2
I0520 10:45:04.200525 26739 net.cpp:91] Creating Layer norm2
I0520 10:45:04.200532 26739 net.cpp:425] norm2 <- pool2
I0520 10:45:04.200541 26739 net.cpp:399] norm2 -> norm2
I0520 10:45:04.200552 26739 net.cpp:141] Setting up norm2
I0520 10:45:04.200561 26739 net.cpp:148] Top shape: 100 256 6 6 (921600)
I0520 10:45:04.200567 26739 net.cpp:156] Memory required for data: 98307600
I0520 10:45:04.200572 26739 layer_factory.hpp:77] Creating layer conv1_p
I0520 10:45:04.200584 26739 net.cpp:91] Creating Layer conv1_p
I0520 10:45:04.200589 26739 net.cpp:425] conv1_p <- data_p
I0520 10:45:04.200598 26739 net.cpp:399] conv1_p -> conv1_p
I0520 10:45:04.200626 26739 net.cpp:141] Setting up conv1_p
I0520 10:45:04.200634 26739 net.cpp:148] Top shape: 100 96 26 26 (6489600)
I0520 10:45:04.200639 26739 net.cpp:156] Memory required for data: 124266000
I0520 10:45:04.200646 26739 net.cpp:484] Sharing parameters 'conv1_w' owned by layer 'conv1', param index 0
I0520 10:45:04.200654 26739 net.cpp:484] Sharing parameters 'conv1_b' owned by layer 'conv1', param index 1
I0520 10:45:04.200662 26739 layer_factory.hpp:77] Creating layer relu1_p
I0520 10:45:04.200670 26739 net.cpp:91] Creating Layer relu1_p
I0520 10:45:04.200676 26739 net.cpp:425] relu1_p <- conv1_p
I0520 10:45:04.200685 26739 net.cpp:386] relu1_p -> conv1_p (in-place)
I0520 10:45:04.200695 26739 net.cpp:141] Setting up relu1_p
I0520 10:45:04.200703 26739 net.cpp:148] Top shape: 100 96 26 26 (6489600)
I0520 10:45:04.200708 26739 net.cpp:156] Memory required for data: 150224400
I0520 10:45:04.200714 26739 layer_factory.hpp:77] Creating layer pool1_p
I0520 10:45:04.200722 26739 net.cpp:91] Creating Layer pool1_p
I0520 10:45:04.200728 26739 net.cpp:425] pool1_p <- conv1_p
I0520 10:45:04.200737 26739 net.cpp:399] pool1_p -> pool1_p
I0520 10:45:04.200750 26739 net.cpp:141] Setting up pool1_p
I0520 10:45:04.200758 26739 net.cpp:148] Top shape: 100 96 13 13 (1622400)
I0520 10:45:04.200764 26739 net.cpp:156] Memory required for data: 156714000
I0520 10:45:04.200769 26739 layer_factory.hpp:77] Creating layer norm1_p
I0520 10:45:04.200780 26739 net.cpp:91] Creating Layer norm1_p
I0520 10:45:04.200788 26739 net.cpp:425] norm1_p <- pool1_p
I0520 10:45:04.200795 26739 net.cpp:399] norm1_p -> norm1_p
I0520 10:45:04.200808 26739 net.cpp:141] Setting up norm1_p
I0520 10:45:04.200815 26739 net.cpp:148] Top shape: 100 96 13 13 (1622400)
I0520 10:45:04.200821 26739 net.cpp:156] Memory required for data: 163203600
I0520 10:45:04.200826 26739 layer_factory.hpp:77] Creating layer conv2_p
I0520 10:45:04.200839 26739 net.cpp:91] Creating Layer conv2_p
I0520 10:45:04.200845 26739 net.cpp:425] conv2_p <- norm1_p
I0520 10:45:04.200853 26739 net.cpp:399] conv2_p -> conv2_p
I0520 10:45:04.202087 26739 net.cpp:141] Setting up conv2_p
I0520 10:45:04.202097 26739 net.cpp:148] Top shape: 100 256 11 11 (3097600)
I0520 10:45:04.202102 26739 net.cpp:156] Memory required for data: 175594000
I0520 10:45:04.202108 26739 net.cpp:484] Sharing parameters 'conv2_w' owned by layer 'conv2', param index 0
I0520 10:45:04.202117 26739 net.cpp:484] Sharing parameters 'conv2_b' owned by layer 'conv2', param index 1
I0520 10:45:04.202124 26739 layer_factory.hpp:77] Creating layer relu2_p
I0520 10:45:04.202132 26739 net.cpp:91] Creating Layer relu2_p
I0520 10:45:04.202139 26739 net.cpp:425] relu2_p <- conv2_p
I0520 10:45:04.202147 26739 net.cpp:386] relu2_p -> conv2_p (in-place)
I0520 10:45:04.202157 26739 net.cpp:141] Setting up relu2_p
I0520 10:45:04.202165 26739 net.cpp:148] Top shape: 100 256 11 11 (3097600)
I0520 10:45:04.202172 26739 net.cpp:156] Memory required for data: 187984400
I0520 10:45:04.202177 26739 layer_factory.hpp:77] Creating layer pool2_p
I0520 10:45:04.202184 26739 net.cpp:91] Creating Layer pool2_p
I0520 10:45:04.202190 26739 net.cpp:425] pool2_p <- conv2_p
I0520 10:45:04.202198 26739 net.cpp:399] pool2_p -> pool2_p
I0520 10:45:04.202219 26739 net.cpp:141] Setting up pool2_p
I0520 10:45:04.202227 26739 net.cpp:148] Top shape: 100 256 6 6 (921600)
I0520 10:45:04.202232 26739 net.cpp:156] Memory required for data: 191670800
I0520 10:45:04.202239 26739 layer_factory.hpp:77] Creating layer norm2_p
I0520 10:45:04.202246 26739 net.cpp:91] Creating Layer norm2_p
I0520 10:45:04.202252 26739 net.cpp:425] norm2_p <- pool2_p
I0520 10:45:04.202261 26739 net.cpp:399] norm2_p -> norm2_p
I0520 10:45:04.202272 26739 net.cpp:141] Setting up norm2_p
I0520 10:45:04.202281 26739 net.cpp:148] Top shape: 100 256 6 6 (921600)
I0520 10:45:04.202286 26739 net.cpp:156] Memory required for data: 195357200
I0520 10:45:04.202292 26739 layer_factory.hpp:77] Creating layer concat
I0520 10:45:04.202301 26739 net.cpp:91] Creating Layer concat
I0520 10:45:04.202307 26739 net.cpp:425] concat <- norm2
I0520 10:45:04.202314 26739 net.cpp:425] concat <- norm2_p
I0520 10:45:04.202323 26739 net.cpp:399] concat -> bcnn_out
I0520 10:45:04.202335 26739 net.cpp:141] Setting up concat
I0520 10:45:04.202343 26739 net.cpp:148] Top shape: 100 512 6 6 (1843200)
I0520 10:45:04.202349 26739 net.cpp:156] Memory required for data: 202730000
I0520 10:45:04.202355 26739 layer_factory.hpp:77] Creating layer ip1
I0520 10:45:04.202364 26739 net.cpp:91] Creating Layer ip1
I0520 10:45:04.202370 26739 net.cpp:425] ip1 <- bcnn_out
I0520 10:45:04.202379 26739 net.cpp:399] ip1 -> ip1
I0520 10:45:04.320654 26739 net.cpp:141] Setting up ip1
I0520 10:45:04.320686 26739 net.cpp:148] Top shape: 100 1000 (100000)
I0520 10:45:04.320693 26739 net.cpp:156] Memory required for data: 203130000
I0520 10:45:04.320727 26739 layer_factory.hpp:77] Creating layer relu3
I0520 10:45:04.320749 26739 net.cpp:91] Creating Layer relu3
I0520 10:45:04.320758 26739 net.cpp:425] relu3 <- ip1
I0520 10:45:04.320770 26739 net.cpp:386] relu3 -> ip1 (in-place)
I0520 10:45:04.320785 26739 net.cpp:141] Setting up relu3
I0520 10:45:04.320796 26739 net.cpp:148] Top shape: 100 1000 (100000)
I0520 10:45:04.320801 26739 net.cpp:156] Memory required for data: 203530000
I0520 10:45:04.320807 26739 layer_factory.hpp:77] Creating layer drop
I0520 10:45:04.320818 26739 net.cpp:91] Creating Layer drop
I0520 10:45:04.320825 26739 net.cpp:425] drop <- ip1
I0520 10:45:04.320833 26739 net.cpp:386] drop -> ip1 (in-place)
I0520 10:45:04.320845 26739 net.cpp:141] Setting up drop
I0520 10:45:04.320853 26739 net.cpp:148] Top shape: 100 1000 (100000)
I0520 10:45:04.320858 26739 net.cpp:156] Memory required for data: 203930000
I0520 10:45:04.320863 26739 layer_factory.hpp:77] Creating layer ip1_drop_0_split
I0520 10:45:04.320875 26739 net.cpp:91] Creating Layer ip1_drop_0_split
I0520 10:45:04.320883 26739 net.cpp:425] ip1_drop_0_split <- ip1
I0520 10:45:04.320890 26739 net.cpp:399] ip1_drop_0_split -> ip1_drop_0_split_0
I0520 10:45:04.320902 26739 net.cpp:399] ip1_drop_0_split -> ip1_drop_0_split_1
I0520 10:45:04.320914 26739 net.cpp:399] ip1_drop_0_split -> ip1_drop_0_split_2
I0520 10:45:04.320926 26739 net.cpp:141] Setting up ip1_drop_0_split
I0520 10:45:04.320935 26739 net.cpp:148] Top shape: 100 1000 (100000)
I0520 10:45:04.320943 26739 net.cpp:148] Top shape: 100 1000 (100000)
I0520 10:45:04.320951 26739 net.cpp:148] Top shape: 100 1000 (100000)
I0520 10:45:04.320956 26739 net.cpp:156] Memory required for data: 205130000
I0520 10:45:04.320962 26739 layer_factory.hpp:77] Creating layer ip_rot
I0520 10:45:04.320973 26739 net.cpp:91] Creating Layer ip_rot
I0520 10:45:04.320979 26739 net.cpp:425] ip_rot <- ip1_drop_0_split_0
I0520 10:45:04.320988 26739 net.cpp:399] ip_rot -> ip_rot
I0520 10:45:04.321229 26739 net.cpp:141] Setting up ip_rot
I0520 10:45:04.321238 26739 net.cpp:148] Top shape: 100 41 (4100)
I0520 10:45:04.321244 26739 net.cpp:156] Memory required for data: 205146400
I0520 10:45:04.321254 26739 layer_factory.hpp:77] Creating layer ip_rot_ip_rot_0_split
I0520 10:45:04.321264 26739 net.cpp:91] Creating Layer ip_rot_ip_rot_0_split
I0520 10:45:04.321271 26739 net.cpp:425] ip_rot_ip_rot_0_split <- ip_rot
I0520 10:45:04.321280 26739 net.cpp:399] ip_rot_ip_rot_0_split -> ip_rot_ip_rot_0_split_0
I0520 10:45:04.321300 26739 net.cpp:399] ip_rot_ip_rot_0_split -> ip_rot_ip_rot_0_split_1
I0520 10:45:04.321312 26739 net.cpp:141] Setting up ip_rot_ip_rot_0_split
I0520 10:45:04.321321 26739 net.cpp:148] Top shape: 100 41 (4100)
I0520 10:45:04.321329 26739 net.cpp:148] Top shape: 100 41 (4100)
I0520 10:45:04.321336 26739 net.cpp:156] Memory required for data: 205179200
I0520 10:45:04.321341 26739 layer_factory.hpp:77] Creating layer ip_x
I0520 10:45:04.321351 26739 net.cpp:91] Creating Layer ip_x
I0520 10:45:04.321357 26739 net.cpp:425] ip_x <- ip1_drop_0_split_1
I0520 10:45:04.321365 26739 net.cpp:399] ip_x -> ip_x
I0520 10:45:04.321460 26739 net.cpp:141] Setting up ip_x
I0520 10:45:04.321470 26739 net.cpp:148] Top shape: 100 13 (1300)
I0520 10:45:04.321475 26739 net.cpp:156] Memory required for data: 205184400
I0520 10:45:04.321485 26739 layer_factory.hpp:77] Creating layer ip_x_ip_x_0_split
I0520 10:45:04.321494 26739 net.cpp:91] Creating Layer ip_x_ip_x_0_split
I0520 10:45:04.321501 26739 net.cpp:425] ip_x_ip_x_0_split <- ip_x
I0520 10:45:04.321509 26739 net.cpp:399] ip_x_ip_x_0_split -> ip_x_ip_x_0_split_0
I0520 10:45:04.321521 26739 net.cpp:399] ip_x_ip_x_0_split -> ip_x_ip_x_0_split_1
I0520 10:45:04.321532 26739 net.cpp:141] Setting up ip_x_ip_x_0_split
I0520 10:45:04.321540 26739 net.cpp:148] Top shape: 100 13 (1300)
I0520 10:45:04.321548 26739 net.cpp:148] Top shape: 100 13 (1300)
I0520 10:45:04.321553 26739 net.cpp:156] Memory required for data: 205194800
I0520 10:45:04.321559 26739 layer_factory.hpp:77] Creating layer ip_y
I0520 10:45:04.321568 26739 net.cpp:91] Creating Layer ip_y
I0520 10:45:04.321574 26739 net.cpp:425] ip_y <- ip1_drop_0_split_2
I0520 10:45:04.321583 26739 net.cpp:399] ip_y -> ip_y
I0520 10:45:04.321676 26739 net.cpp:141] Setting up ip_y
I0520 10:45:04.321684 26739 net.cpp:148] Top shape: 100 13 (1300)
I0520 10:45:04.321689 26739 net.cpp:156] Memory required for data: 205200000
I0520 10:45:04.321698 26739 layer_factory.hpp:77] Creating layer ip_y_ip_y_0_split
I0520 10:45:04.321708 26739 net.cpp:91] Creating Layer ip_y_ip_y_0_split
I0520 10:45:04.321714 26739 net.cpp:425] ip_y_ip_y_0_split <- ip_y
I0520 10:45:04.321723 26739 net.cpp:399] ip_y_ip_y_0_split -> ip_y_ip_y_0_split_0
I0520 10:45:04.321733 26739 net.cpp:399] ip_y_ip_y_0_split -> ip_y_ip_y_0_split_1
I0520 10:45:04.321745 26739 net.cpp:141] Setting up ip_y_ip_y_0_split
I0520 10:45:04.321753 26739 net.cpp:148] Top shape: 100 13 (1300)
I0520 10:45:04.321761 26739 net.cpp:148] Top shape: 100 13 (1300)
I0520 10:45:04.321766 26739 net.cpp:156] Memory required for data: 205210400
I0520 10:45:04.321773 26739 layer_factory.hpp:77] Creating layer x_loss
I0520 10:45:04.321784 26739 net.cpp:91] Creating Layer x_loss
I0520 10:45:04.321789 26739 net.cpp:425] x_loss <- ip_x_ip_x_0_split_0
I0520 10:45:04.321795 26739 net.cpp:425] x_loss <- x_trans_pair_data_2_split_0
I0520 10:45:04.321805 26739 net.cpp:399] x_loss -> x_loss
…
